…
ut        "],"execution_count":44,"outputs":[]},{"cell_type":"code","metadata":{"colab":{"base_uri":"https://localhost:8080/"},"id":"ZC3YoGj-nbRD","executionInfo":{"status":"ok","timestamp":1628188981675,"user_tz":-330,"elapsed":419,"user":{"displayName":"Balasri Nitin Reddy Vanipenta","photoUrl":"","userId":"09013420310722213738"}},"outputId":"e02ceaa4-442f-41ed-db11-6ad8bfba6c15"},"source":["\n","model = (ResNet9(3, len(train.classes)), device) \n","model"],"execution_count":48,"outputs":[{"output_type":"execute_result","data":{"text/plain":["(ResNet9(\n","   (conv1): Sequential(\n","     (0): Conv2d(3, 64, kernel_size=(3, 3), stride=(1, 1), padding=(1, 1))\n","     (1): BatchNorm2d(64, eps=1e-05, momentum=0.1, affine=True, track_running_stats=True)\n","     (2): ReLU(inplace=True)\n","   )\n","   (conv2): Sequential(\n","     (0): Conv2d(64, 128, kernel_size=(3, 3), stride=(1, 1), padding=(1, 1))\n","     (1): BatchNorm2d(128, eps=1e-05, momentum=0.1, affine=True, track_running_stats=True)\n","     (2): ReLU(inplace=True)\n","     (3): MaxPool2d(kernel_size=4, stride=4, padding=0, dilation=1, ceil_mode=False)\n","   )\n","   (res1): Sequential(\n","     (0): Sequential(\n","       (0): Conv2d(128, 128, kernel_size=(3, 3), stride=(1, 1), padding=(1, 1))\n","       (1): BatchNorm2d(128, eps=1e-05, momentum=0.1, affine=True, track_running_stats=True)\n","       (2): ReLU(inplace=True)\n","     )\n","     (1): Sequential(\n","       (0): Conv2d(128, 128, kernel_size=(3, 3), stride=(1, 1), padding=(1, 1))\n","       (1): BatchNorm2d(128, eps=1e-05, momentum=0.1, affine=True, track_running_stats=True)\n","       (2): ReLU(inplace=True)\n","     )\n","   )\n","   (conv3): Sequential(\n","     (0): Conv2d(128, 256, kernel_size=(3, 3), stride=(1, 1), padding=(1, 1))\n","     (1): BatchNorm2d(256, eps=1e-05, momentum=0.1, affine=True, track_running_stats=True)\n","     (2): ReLU(inplace=True)\n","     (3): MaxPool2d(kernel_size=4, stride=4, padding=0, dilation=1, ceil_mode=False)\n","   )\n","   (conv4): Sequential(\n","     (0): Conv2d(256, 512, kernel_size=(3, 3), stride=(1, 1), padding=(1, 1))\n","     (1): BatchNorm2d(512, eps=1e-05, momentum=0.1, affine=True, track_running_stats=True)\n","     (2): ReLU(inplace=True)\n","     (3): MaxPool2d(kernel_size=4, stride=4, padding=0, dilation=1, ceil_mode=False)\n","   )\n","   (res2): Sequential(\n","     (0): Sequential(\n","       (0): Conv2d(512, 512, kernel_size=(3, 3), stride=(1, 1), padding=(1, 1))\n","       (1): BatchNorm2d(512, eps=1e-05, momentum=0.1, affine=True, track_running_stats=True)\n","       (2): ReLU(inplace=True)\n","     )\n","     (1): Sequential(\n","       (0): Conv2d(512, 512, kernel_size=(3, 3), stride=(1, 1), padding=(1, 1))\n","       (1): BatchNorm2d(512, eps=1e-05, momentum=0.1, affine=True, track_running_stats=True)\n","       (2): ReLU(inplace=True)\n","     )\n","   )\n","   (classifier): Sequential(\n","     (0): MaxPool2d(kernel_size=4, stride=4, padding=0, dilation=1, ceil_mode=False)\n","     (1): Flatten(start_dim=1, end_dim=-1)\n","     (2): Linear(in_features=512, out_features=38, bias=True)\n","   )\n"," ), device(type='cuda'))"]},"metadata":{"tags":[]},"execution_count":48}]},{"cell_type":"code","metadata":{"colab":{"base_uri":"https://localhost:8080/","height":211},"id":"2UjGzYQktCkR","executionInfo":{"status":"error","timestamp":1628194340391,"user_tz":-330,"elapsed":432,"user":{"displayName":"Balasri Nitin Reddy Vanipenta","photoUrl":"
…
